…
features.module.13.weight torch.Size([512, 512, 3, 3])
features.module.13.bias torch.Size([512])
features.module.16.weight torch.Size([512, 512, 3, 3])
features.module.16.bias torch.Size([512])
features.module.18.weight torch.Size([512, 512, 3, 3])
features.module.18.bias torch.Size([512])
classifier.0.weight torch.Size([4096, 25088])
classifier.0.bias torch.Size([4096])
classifier.3.weight torch.Size([4096, 4096])
classifier.3.bias torch.Size([4096])
classifier.6.weight torch.Size([1000, 4096])
classifier.6.bias torch.Size([1000])
VE: model VGG(
  (features): DataParallel(
    (module): Sequential(
      (0): Conv2d(3, 64, kernel_size=(3, 3), stride=(1, 1), padding=(1, 1))
      (1): ReLU(inplace=True)
      (2): MaxPool2d(kernel_size=2, stride=2, padding=0, dilation=1, ceil_mode=False)
      (3): Conv2d(64, 128, kernel_size=(3, 3), stride=(1, 1), padding=(1, 1))
      (4): ReLU(inplace=True)
      (5): MaxPool2d(kernel_size=2, stride=2, padding=0, dilation=1, ceil_mode=False)
      (6): Conv2d(128, 256, kernel_size=(3, 3), stride=(1, 1), padding=(1, 1))
      (7): ReLU(inplace=True)
      (8): Conv2d(256, 256, kernel_size=(3, 3), stride=(1, 1), padding=(1, 1))
      (9): ReLU(inplace=True)
      (10): MaxPool2d(kernel_size=2, stride=2, padding=0, dilation=1, ceil_mode=False)
      (11): Conv2d(256, 512, kernel_size=(3, 3), stride=(1, 1), padding=(1, 1))
      (12): ReLU(inplace=True)
      (13): Conv2d(512, 512, kernel_size=(3, 3), stride=(1, 1), padding=(1, 1))
      (14): ReLU(inplace=True)
      (15): MaxPool2d(kernel_size=2, stride=2, padding=0, dilation=1, ceil_mode=False)
      (16): Conv2d(512, 512, kernel_size=(3, 3), stride=(1, 1), padding=(1, 1))
      (17): ReLU(inplace=True)
      (18): Conv2d(512, 512, kernel_size=(3, 3), stride=(1, 1), padding=(1, 1))
      (19): ReLU(inplace=True)
      (20): MaxPool2d(kernel_size=2, stride=2, padding=0, dilation=1, ceil_mode=False)
    )
  )
  (avgpool): AdaptiveAvgPool2d(output_size=(7, 7))
  (classifier): Sequential(
    (0): Linear(in_features=25088, out_features=4096, bias=True)
    (1): ReLU(inplace=True)
    (2): Dropout(p=0.5, inplace=False)
    (3): Linear(in_features=4096, out_features=4096, bias=True)
    (4): ReLU(inplace=True)
    (5): Dropout(p=0.5, inplace=False)
    (6): Linear(in_features=4096, out_features=1000, bias=True)
  )
)
features.module.0: <class 'torch.nn.modules.conv.Conv2d'> : torch.Size([256, 3, 224, 224]) : torch.Size([256, 64, 224, 224])
features.module.1: <class 'torch.nn.modules.activation.ReLU'> : torch.Size([256, 64, 224, 224]) : torch.Size([256, 64, 224, 224])
features.module.2: <class 'torch.nn.modules.pooling.MaxPool2d'> : torch.Size([256, 64, 224, 224]) : torch.Size([256, 64, 112, 112])
…
